td_solitaire.pt (torch_old, 3665 bytes, 3 tensors)

model.0.weight f4 [20, 33]
-0.36336336 -0.4460885 -0.34331533 -0.36752784 0.8069385 -0.1379848 -0.35735792 0.17703193
-0.1254083 0.7807258 -0.22919978 -0.46092227 -0.69876134 0.021282986 -0.33782738 -0.020558806
0.22076948 -0.34634024 -0.2653369 -0.28787562 -0.20660369 -0.086226664 0.02932101 -0.039758753
-0.52113855 -0.23999274 -0.60011846 -0.9887705 -0.7257112 -0.26133403 -1.824964 -0.7894731
0.08817183 0.123069346 0.7868036 0.13224201 0.27628335 0.6967066 0.20329925 0.193642
0.21286216 0.07925408 -0.10447435 0.51332766 0.7100075 0.008145489 0.40408108 0.45695147
0.32268587 0.29286748 0.5167489 0.45014948 0.062213335 0.55303764 0.5315015 0.35300225
0.18955567 0.4392157 0.25298226 -0.22000062 0.46854055 0.8020837 0.1962945 0.6055544
0.7523957 0.0065111597 -1.170503 0.06692156 -1.3238292 1.0138824 -0.35463026 0.83546746
0.20148017 -0.09189604 -0.3633906 -0.07761701 -0.051325023 0.06024777 -0.23496825 0.05701381
-0.18516901 -0.11490603 -0.2911403 0.09046347 -0.18800235 -0.2993887 -0.30595055 0.29814968
-0.23306085 -0.0016985676 -0.30730364 0.09492562 0.370801 -0.7253208 0.014248375 -1.8496376
1.1410332 -0.5931102 2.7238853 0.4292937 0.077227056 0.45765886 -0.22408932 -0.39977443
0.2746073 0.013387138 -0.09769711 0.21226518 -0.58868444 0.14023568 0.26748085 1.138936
-0.018046195 -0.045399837 -0.035222467 -0.1903154 0.42636442 0.4194406 0.77091956 0.4958605
0.015451602 0.23634352 -0.018437091 0.30267376 0.12780076 0.90177906 -0.10821904 0.15532078
0.8622073 0.2829556 0.23072486 0.7641232 0.07152713 0.10358416 -0.07241348 -0.6657149
0.40914732 -0.474985 -0.04023534 -0.09612908 -0.7361408 0.19090346 -0.360384 -0.06748474
0.2366728 0.08927734 0.14938267 -0.35579902 0.038804572 0.47517377 -0.5323018 0.00083657634
-0.7907948 -0.42071065 -0.9110347 -0.04252207 -0.19094805 -0.41040355 0.6645595 -0.43002442
-0.27072662 -0.104300104 -0.21995836 -0.2619069 -0.16351698 -0.08237227 -0.11636201 -0.06963186
0.032912508 -0.103028856 0.016628467 -0.03441204 -0.07348011 -0.0616482 0.0050200126 -0.219239
-0.049921665 0.011906276 -0.0012397415 0.04622398 -0.018987894 -0.12952383 0.05921513 -0.105562516
-0.13556458 -0.102697626 0.063685454 -0.1213459 -0.15768969 -0.026231958 -0.17434771 -0.018691747
-0.019990362 -0.12736416 -0.061503645 -0.1318649 -0.10383332 -0.14747083 0.52153313 0.25558877
0.6699276 -0.23876433 -0.33885387 0.2143561 0.071708046 -0.14999972 0.11790729 -0.7414627
-0.005939957 0.2135915 0.9407849 0.07008916 -0.24398181 0.10557838 -0.46697626 0.19459924
0.48724756 0.5236821 0.47500327 0.12221056 -0.01989622 0.1961105 0.288906 0.27254218
1.2540013 -0.08180959 0.05804973 0.9339439 0.37212574 0.49239716 0.74627525 0.64474505
0.20149899 0.6350952 -0.45355228 -0.6397046 -0.022810496 0.01072122 -0.5445068 0.092497416
-0.699966 -0.052968252 0.3507818 1.1225675 -0.29078496 -0.2351982 -0.06280767 -0.2662005
0.27463138 0.47301623 0.6342993 0.28029487 0.047802232 -0.064367756 -0.0075029684 0.18581355
00000000: c30a babe b665 e4be 07c7 afbe 9c2c bcbe
00000010: 8693 4e3f e34b 0dbe 9ef7 b6be dc47 353e
00000020: 096b 00be a5dd 473f 59b3 6abe 01fe ebbe
00000030: 06e2 32bf a859 ae3c b6f7 acbe f16a a8bc
00000040: 6511 623e 8253 b1be 3dda 87be 6f64 93be
00000050: eb8f 53be 9b97 b0bd 9d32 f03c 13da 22bd
00000060: 5669 05bf a8c0 75be 5da1 19bf 1020 7dbf
00000070: 36c8 39bf 93cd 85be 6c98 e9bf e91a 4abf
00000080: 6f93 b43d c80b fc3d f66b 493f 736a 073e
00000090: 0375 8d3e 5d5b 323f ae2d 503e 174a 463e
000000a0: 8af8 593e f74f a23d a6f6 d5bd 7169 033f
000000b0: 0dc3 353f a874 053c b7e3 ce3e 8bf5 e93e
000000c0: 1537 a53e baf2 953e a849 043f fe79 e63e
000000d0: 69d3 7e3d e093 0d3f 7b10 083f b6bc b43e
000000e0: e21a 423e e1e0 e03e e486 813e d847 61be
000000f0: 8ce4 ef3e 5b55 4d3f 6d01 493e 9d05 1b3f
00000100: 019d 403f 915b d53b 0bd3 95bf 2c0e 893d
00000110: 3c73 a9bf e6c6 813f 1992 b5be 32e1 553f
00000120: d150 4e3e fe33 bcbd 550e babe abf5 9ebd
00000130: 303a 52bd 5ec6 763d 849b 70be 5087 693d
00000140: f29c 3dbe da53 ebbd 5710 95be e944 b93d
00000150: b083 40be 7a49 99be 8da5 9cbe 13a7 983e
00000160: 81a7 6ebe 79a2 deba e756 9dbe 5d68 c23d
00000170: a1d9 bd3e a0ae 39bf 0472 693c edc0 ecbf
00000180: 600d 923f 12d6 17bf 2354 2e40 62cc db3e
00000190: 3829 9e3d 4352 ea3e ac77 65be 3caf ccbe
000001a0: 5499 8c3e ba55 5b3c 6c15 c8bd 0b5c 593e
000001b0: 06b4 16bf f199 0f3e 40f3 883e a8c8 913f
000001c0: 9dd5 93bc 2ef5 39bd 6f45 10bd 0ae2 42be
000001d0: 704c da3e ebc0 d63e fc5a 453f 6de1 fd3e
000001e0: b728 7d3c 0904 723e 6209 97bc 0ef8 9a3e
000001f0: 34de 023e feda 663f f2a1 ddbd 690c 1f3e
00000200: 9eb9 5c3f 8edf 903e 2343 6c3e 949d 433f
00000210: d17c 923d ef23 d43d 854d 94bd 4b6c 2abf
00000220: c27b d13e 3c31 f3be d0cd 24bd 53df c4bd
00000230: b973 3cbf 327c 433e 4084 b8be 7035 8abd
00000240: 5b5a 723e 0ad7 b63d c5f7 183e 4a2b b6be
00000250: 8bf1 1e3d fa49 f33e ee44 08bf b04d 5b3a
00000260: 8771 4abf 6367 d7be 9239 69bf 9f2b 2ebd
00000270: e387 43be 6a20 d2be 9220 2a3f 292c dcbe
00000280: ae9c 8abe 4b9b d5bd c43c 61be a918 86be
00000290: ff70 27be cbb2 a8bd 354f eebd 269b 8ebd
000002a0: 44cf 063d cb00 d3bd 6c38 883c a4f3 0cbd
000002b0: bd7c 96bd d382 7cbd eb7e a43b 3080 60be
000002c0: a97a 4cbd 8b12 433c d27e a2ba 5b55 3d3d
000002d0: 808c 9bbc e5a1 04be 908b 723d 2931 d8bd
000002e0: 71d1 0abe 2253 d2bd 856d 823d 3384 f8bd
000002f0: 6879 21be 67e4 d6bc 3588 32be 6f1f 99bc
00000300: d4c2 a3bc c06b 02be 3feb 7bbd 9807 07be
00000310: 90a6 d4bd 9802 17be 3283 053f 88dc 823e
00000320: 6080 2b3f a37e 74be 417e adbe 2a80 5b3e
00000330: abdb 923d 8799 19be 6179 f13d 80d0 3dbf
00000340: f9a3 c2bb bbb7 5a3e 47d7 703f e88a 8f3d
00000350: 5ed6 79be 7a39 d83d 8317 efbe 0645 473e
00000360: 8378 f93e 0810 063f a133 f33e 8849 fa3d
00000370: 66fd a2bc 31d1 483e 7deb 933e a68a 8b3e
00000380: 1d83 a03f c98b a7bd 8ec5 6d3d f316 6f3f
00000390: 4487 be3e 7b1b fc3e e50b 3f3f 030e 253f
000003a0: c055 4e3e 9995 223f 0138 e8be aec3 23bf
000003b0: 14dd babc 0ea8 2f3c cc64 0bbf 496f bd3d
000003c0: f930 33bf 3df5 58bd ac99 b33e 4bb0 8f3f
000003d0: c4e1 94be ccd7 70be 4fa1 80bd 6f4b 88be
000003e0: 7c9c 8c3e 2f2f f23e 7061 223f cf82 8f3e
000003f0: 46cc 433d 3ed3 83bd 76db f5bb e845 3e3e

model.0.bias f4 [20]
2.3196468 -3.8819497 0.36919144 1.5264685 2.2141461 -0.21353203 1.5547706 1.427503
2.0584686 1.3318475 -2.5939267 2.1683528 0.6161748 -0.19835806 1.9744277 2.2149775
1.2341524 -0.48884892 2.0164638 -3.4682229
00000000: 1875 1440 dd71 78c0 a906 bd3e 5263 c33f
00000010: 92b4 0d40 24a8 5abe b902 c73f 6bb8 b63f
00000020: f3bd 0340 fb79 aa3f e502 26c0 4bc6 0a40
00000030: a2bd 1d3f 601e 4bbe 0cba fc3f 31c2 0d40
00000040: b5f8 9d3f 684a fabe be0d 0140 5df7 5dc0

model.2.weight f4 [1, 20]
1.9153714 1.5080574 -0.9965055 -0.10861773 0.6367306 -0.022571754 -0.26277432 -0.13602756
1.8789505 -0.1157304 0.9293371 0.45602584 -0.99676496 -0.11496954 1.6617645 0.44222006
-0.41057226 0.5842991 0.32748184 1.1043512
00000000: e42a f53f 0608 c13f fc1a 7fbf f972 debd
00000010: c700 233f 66e8 b8bc 5b8a 86be cf4a 0bbe
00000020: 7381 f03f 0f04 edbd 09e9 6d3f 387c e93e
00000030: fd2b 7fbf 2675 ebbd b3b4 d43f ab6a e23e
00000040: 8736 d2be a094 153f b3ab a73e 615b 8d3f
